{
  "layers" : [
    {
      "pad_r" : 0,
      "fused_relu" : 1,
      "fused_tanh" : 0,
      "debug_info" : "conv2d_1",
      "pad_fill_mode" : 0,
      "pad_b" : 0,
      "pad_l" : 0,
      "top" : "conv2d_1__activation___output",
      "blob_weights" : 3,
      "K" : 3,
      "blob_biases" : 1,
      "name" : "conv2d_1",
      "has_batch_norm" : 0,
      "type" : "convolution",
      "n_groups" : 1,
      "pad_t" : 0,
      "has_biases" : 1,
      "C" : 16,
      "bottom" : "image",
      "weights" : {

      },
      "Nx" : 3,
      "pad_mode" : 1,
      "pad_value" : 0,
      "Ny" : 3,
      "n_parallel" : 1
    },
    {
      "pad_r" : 0,
      "fused_relu" : 1,
      "fused_tanh" : 0,
      "debug_info" : "conv2d_2",
      "pad_fill_mode" : 0,
      "pad_b" : 0,
      "pad_l" : 0,
      "top" : "conv2d_2__activation___output",
      "blob_weights" : 7,
      "K" : 16,
      "blob_biases" : 5,
      "name" : "conv2d_2",
      "has_batch_norm" : 0,
      "type" : "convolution",
      "n_groups" : 1,
      "pad_t" : 0,
      "has_biases" : 1,
      "C" : 16,
      "bottom" : "conv2d_1__activation___output",
      "weights" : {

      },
      "Nx" : 3,
      "pad_mode" : 1,
      "pad_value" : 0,
      "Ny" : 3,
      "n_parallel" : 1
    },
    {
      "name" : "batch_normalization_1",
      "bottom" : "conv2d_2__activation___output",
      "weights" : {

      },
      "debug_info" : "batch_normalization_1",
      "top" : "batch_normalization_1_output",
      "C" : 16,
      "blob_batchnorm_params" : 9,
      "type" : "batchnorm"
    },
    {
      "pad_r" : 0,
      "debug_info" : "max_pooling2d_1",
      "pad_fill_mode" : 0,
      "pad_b" : 0,
      "pad_l" : 0,
      "size_x" : 2,
      "top" : "max_pooling2d_1_output",
      "top_shape_style" : 0,
      "stride_x" : 2,
      "avg_or_max" : 1,
      "average_count_exclude_padding" : 1,
      "type" : "pool",
      "name" : "max_pooling2d_1",
      "pad_t" : 0,
      "stride_y" : 2,
      "bottom" : "batch_normalization_1_output",
      "weights" : {

      },
      "pad_mode" : 2,
      "size_y" : 2,
      "pad_value" : 0
    },
    {
      "pad_r" : 0,
      "fused_relu" : 1,
      "fused_tanh" : 0,
      "debug_info" : "conv2d_3",
      "pad_fill_mode" : 0,
      "pad_b" : 0,
      "pad_l" : 0,
      "top" : "conv2d_3__activation___output",
      "blob_weights" : 13,
      "K" : 16,
      "blob_biases" : 11,
      "name" : "conv2d_3",
      "has_batch_norm" : 0,
      "type" : "convolution",
      "n_groups" : 1,
      "pad_t" : 0,
      "has_biases" : 1,
      "C" : 32,
      "bottom" : "max_pooling2d_1_output",
      "weights" : {

      },
      "Nx" : 3,
      "pad_mode" : 1,
      "pad_value" : 0,
      "Ny" : 3,
      "n_parallel" : 1
    },
    {
      "pad_r" : 0,
      "fused_relu" : 1,
      "fused_tanh" : 0,
      "debug_info" : "conv2d_4",
      "pad_fill_mode" : 0,
      "pad_b" : 0,
      "pad_l" : 0,
      "top" : "conv2d_4__activation___output",
      "blob_weights" : 17,
      "K" : 32,
      "blob_biases" : 15,
      "name" : "conv2d_4",
      "has_batch_norm" : 0,
      "type" : "convolution",
      "n_groups" : 1,
      "pad_t" : 0,
      "has_biases" : 1,
      "C" : 32,
      "bottom" : "conv2d_3__activation___output",
      "weights" : {

      },
      "Nx" : 3,
      "pad_mode" : 1,
      "pad_value" : 0,
      "Ny" : 3,
      "n_parallel" : 1
    },
    {
      "name" : "batch_normalization_2",
      "bottom" : "conv2d_4__activation___output",
      "weights" : {

      },
      "debug_info" : "batch_normalization_2",
      "top" : "batch_normalization_2_output",
      "C" : 32,
      "blob_batchnorm_params" : 19,
      "type" : "batchnorm"
    },
    {
      "pad_r" : 0,
      "debug_info" : "max_pooling2d_2",
      "pad_fill_mode" : 0,
      "pad_b" : 0,
      "pad_l" : 0,
      "size_x" : 2,
      "top" : "max_pooling2d_2_output",
      "top_shape_style" : 0,
      "stride_x" : 2,
      "avg_or_max" : 1,
      "average_count_exclude_padding" : 1,
      "type" : "pool",
      "name" : "max_pooling2d_2",
      "pad_t" : 0,
      "stride_y" : 2,
      "bottom" : "batch_normalization_2_output",
      "weights" : {

      },
      "pad_mode" : 2,
      "size_y" : 2,
      "pad_value" : 0
    },
    {
      "pad_r" : 0,
      "fused_relu" : 1,
      "fused_tanh" : 0,
      "debug_info" : "conv2d_5",
      "pad_fill_mode" : 0,
      "pad_b" : 0,
      "pad_l" : 0,
      "top" : "conv2d_5__activation___output",
      "blob_weights" : 23,
      "K" : 32,
      "blob_biases" : 21,
      "name" : "conv2d_5",
      "has_batch_norm" : 0,
      "type" : "convolution",
      "n_groups" : 1,
      "pad_t" : 0,
      "has_biases" : 1,
      "C" : 64,
      "bottom" : "max_pooling2d_2_output",
      "weights" : {

      },
      "Nx" : 3,
      "pad_mode" : 1,
      "pad_value" : 0,
      "Ny" : 3,
      "n_parallel" : 1
    },
    {
      "pad_r" : 0,
      "fused_relu" : 1,
      "fused_tanh" : 0,
      "debug_info" : "conv2d_6",
      "pad_fill_mode" : 0,
      "pad_b" : 0,
      "pad_l" : 0,
      "top" : "conv2d_6__activation___output",
      "blob_weights" : 27,
      "K" : 64,
      "blob_biases" : 25,
      "name" : "conv2d_6",
      "has_batch_norm" : 0,
      "type" : "convolution",
      "n_groups" : 1,
      "pad_t" : 0,
      "has_biases" : 1,
      "C" : 64,
      "bottom" : "conv2d_5__activation___output",
      "weights" : {

      },
      "Nx" : 3,
      "pad_mode" : 1,
      "pad_value" : 0,
      "Ny" : 3,
      "n_parallel" : 1
    },
    {
      "name" : "batch_normalization_3",
      "bottom" : "conv2d_6__activation___output",
      "weights" : {

      },
      "debug_info" : "batch_normalization_3",
      "top" : "batch_normalization_3_output",
      "C" : 64,
      "blob_batchnorm_params" : 29,
      "type" : "batchnorm"
    },
    {
      "pad_r" : 0,
      "debug_info" : "max_pooling2d_3",
      "pad_fill_mode" : 0,
      "pad_b" : 0,
      "pad_l" : 0,
      "size_x" : 2,
      "top" : "max_pooling2d_3_output",
      "top_shape_style" : 0,
      "stride_x" : 2,
      "avg_or_max" : 1,
      "average_count_exclude_padding" : 1,
      "type" : "pool",
      "name" : "max_pooling2d_3",
      "pad_t" : 0,
      "stride_y" : 2,
      "bottom" : "batch_normalization_3_output",
      "weights" : {

      },
      "pad_mode" : 2,
      "size_y" : 2,
      "pad_value" : 0
    },
    {
      "pad_r" : 0,
      "fused_relu" : 0,
      "fused_tanh" : 0,
      "debug_info" : "separable_conv2d_1_step_1",
      "pad_fill_mode" : 0,
      "pad_b" : 0,
      "pad_l" : 0,
      "top" : "separable_conv2d_1_output_intermin_",
      "blob_weights" : 31,
      "K" : 64,
      "name" : "separable_conv2d_1_step_1",
      "has_batch_norm" : 0,
      "type" : "convolution",
      "n_groups" : 64,
      "pad_t" : 0,
      "has_biases" : 0,
      "C" : 64,
      "bottom" : "max_pooling2d_3_output",
      "weights" : {

      },
      "Nx" : 3,
      "pad_mode" : 1,
      "pad_value" : 0,
      "Ny" : 3,
      "n_parallel" : 1
    },
    {
      "pad_r" : 0,
      "fused_relu" : 1,
      "fused_tanh" : 0,
      "debug_info" : "separable_conv2d_1_step_2",
      "pad_fill_mode" : 0,
      "pad_b" : 0,
      "pad_l" : 0,
      "top" : "separable_conv2d_1__activation___output",
      "blob_weights" : 35,
      "K" : 64,
      "blob_biases" : 33,
      "name" : "separable_conv2d_1_step_2",
      "has_batch_norm" : 0,
      "type" : "convolution",
      "n_groups" : 1,
      "pad_t" : 0,
      "has_biases" : 1,
      "C" : 128,
      "bottom" : "separable_conv2d_1_output_intermin_",
      "weights" : {

      },
      "Nx" : 1,
      "pad_mode" : 1,
      "pad_value" : 0,
      "Ny" : 1,
      "n_parallel" : 1
    },
    {
      "pad_r" : 0,
      "fused_relu" : 0,
      "fused_tanh" : 0,
      "debug_info" : "separable_conv2d_2_step_1",
      "pad_fill_mode" : 0,
      "pad_b" : 0,
      "pad_l" : 0,
      "top" : "separable_conv2d_2_output_intermin_",
      "blob_weights" : 37,
      "K" : 128,
      "name" : "separable_conv2d_2_step_1",
      "has_batch_norm" : 0,
      "type" : "convolution",
      "n_groups" : 128,
      "pad_t" : 0,
      "has_biases" : 0,
      "C" : 128,
      "bottom" : "separable_conv2d_1__activation___output",
      "weights" : {

      },
      "Nx" : 3,
      "pad_mode" : 1,
      "pad_value" : 0,
      "Ny" : 3,
      "n_parallel" : 1
    },
    {
      "pad_r" : 0,
      "fused_relu" : 1,
      "fused_tanh" : 0,
      "debug_info" : "separable_conv2d_2_step_2",
      "pad_fill_mode" : 0,
      "pad_b" : 0,
      "pad_l" : 0,
      "top" : "separable_conv2d_2__activation___output",
      "blob_weights" : 41,
      "K" : 128,
      "blob_biases" : 39,
      "name" : "separable_conv2d_2_step_2",
      "has_batch_norm" : 0,
      "type" : "convolution",
      "n_groups" : 1,
      "pad_t" : 0,
      "has_biases" : 1,
      "C" : 128,
      "bottom" : "separable_conv2d_2_output_intermin_",
      "weights" : {

      },
      "Nx" : 1,
      "pad_mode" : 1,
      "pad_value" : 0,
      "Ny" : 1,
      "n_parallel" : 1
    },
    {
      "name" : "batch_normalization_4",
      "bottom" : "separable_conv2d_2__activation___output",
      "weights" : {

      },
      "debug_info" : "batch_normalization_4",
      "top" : "batch_normalization_4_output",
      "C" : 128,
      "blob_batchnorm_params" : 43,
      "type" : "batchnorm"
    },
    {
      "pad_r" : 0,
      "debug_info" : "max_pooling2d_4",
      "pad_fill_mode" : 0,
      "pad_b" : 0,
      "pad_l" : 0,
      "size_x" : 2,
      "top" : "max_pooling2d_4_output",
      "top_shape_style" : 0,
      "stride_x" : 2,
      "avg_or_max" : 1,
      "average_count_exclude_padding" : 1,
      "type" : "pool",
      "name" : "max_pooling2d_4",
      "pad_t" : 0,
      "stride_y" : 2,
      "bottom" : "batch_normalization_4_output",
      "weights" : {

      },
      "pad_mode" : 2,
      "size_y" : 2,
      "pad_value" : 0
    },
    {
      "pad_r" : 0,
      "fused_relu" : 0,
      "fused_tanh" : 0,
      "debug_info" : "separable_conv2d_3_step_1",
      "pad_fill_mode" : 0,
      "pad_b" : 0,
      "pad_l" : 0,
      "top" : "separable_conv2d_3_output_intermin_",
      "blob_weights" : 45,
      "K" : 128,
      "name" : "separable_conv2d_3_step_1",
      "has_batch_norm" : 0,
      "type" : "convolution",
      "n_groups" : 128,
      "pad_t" : 0,
      "has_biases" : 0,
      "C" : 128,
      "bottom" : "max_pooling2d_4_output",
      "weights" : {

      },
      "Nx" : 3,
      "pad_mode" : 1,
      "pad_value" : 0,
      "Ny" : 3,
      "n_parallel" : 1
    },
    {
      "pad_r" : 0,
      "fused_relu" : 1,
      "fused_tanh" : 0,
      "debug_info" : "separable_conv2d_3_step_2",
      "pad_fill_mode" : 0,
      "pad_b" : 0,
      "pad_l" : 0,
      "top" : "separable_conv2d_3__activation___output",
      "blob_weights" : 49,
      "K" : 128,
      "blob_biases" : 47,
      "name" : "separable_conv2d_3_step_2",
      "has_batch_norm" : 0,
      "type" : "convolution",
      "n_groups" : 1,
      "pad_t" : 0,
      "has_biases" : 1,
      "C" : 256,
      "bottom" : "separable_conv2d_3_output_intermin_",
      "weights" : {

      },
      "Nx" : 1,
      "pad_mode" : 1,
      "pad_value" : 0,
      "Ny" : 1,
      "n_parallel" : 1
    },
    {
      "pad_r" : 0,
      "fused_relu" : 0,
      "fused_tanh" : 0,
      "debug_info" : "separable_conv2d_4_step_1",
      "pad_fill_mode" : 0,
      "pad_b" : 0,
      "pad_l" : 0,
      "top" : "separable_conv2d_4_output_intermin_",
      "blob_weights" : 51,
      "K" : 256,
      "name" : "separable_conv2d_4_step_1",
      "has_batch_norm" : 0,
      "type" : "convolution",
      "n_groups" : 256,
      "pad_t" : 0,
      "has_biases" : 0,
      "C" : 256,
      "bottom" : "separable_conv2d_3__activation___output",
      "weights" : {

      },
      "Nx" : 3,
      "pad_mode" : 1,
      "pad_value" : 0,
      "Ny" : 3,
      "n_parallel" : 1
    },
    {
      "pad_r" : 0,
      "fused_relu" : 1,
      "fused_tanh" : 0,
      "debug_info" : "separable_conv2d_4_step_2",
      "pad_fill_mode" : 0,
      "pad_b" : 0,
      "pad_l" : 0,
      "top" : "separable_conv2d_4__activation___output",
      "blob_weights" : 55,
      "K" : 256,
      "blob_biases" : 53,
      "name" : "separable_conv2d_4_step_2",
      "has_batch_norm" : 0,
      "type" : "convolution",
      "n_groups" : 1,
      "pad_t" : 0,
      "has_biases" : 1,
      "C" : 256,
      "bottom" : "separable_conv2d_4_output_intermin_",
      "weights" : {

      },
      "Nx" : 1,
      "pad_mode" : 1,
      "pad_value" : 0,
      "Ny" : 1,
      "n_parallel" : 1
    },
    {
      "name" : "batch_normalization_5",
      "bottom" : "separable_conv2d_4__activation___output",
      "weights" : {

      },
      "debug_info" : "batch_normalization_5",
      "top" : "batch_normalization_5_output",
      "C" : 256,
      "blob_batchnorm_params" : 57,
      "type" : "batchnorm"
    },
    {
      "top" : "up_sampling2d_1_output",
      "use_fractional_scale_factors" : false,
      "weights" : {

      },
      "fractional_scaling_factor_y" : 1,
      "type" : "upsample",
      "scaling_factor_x" : 2,
      "mode" : 1,
      "align_corners" : 0,
      "bottom" : "batch_normalization_5_output",
      "debug_info" : "up_sampling2d_1",
      "fractional_scaling_factor_x" : 1,
      "is_legacy_mode" : 1,
      "name" : "up_sampling2d_1",
      "scaling_factor_y" : 2
    },
    {
      "pad_r" : 0,
      "fused_relu" : 0,
      "fused_tanh" : 0,
      "debug_info" : "separable_conv2d_5_step_1",
      "pad_fill_mode" : 0,
      "pad_b" : 0,
      "pad_l" : 0,
      "top" : "separable_conv2d_5_output_intermin_",
      "blob_weights" : 59,
      "K" : 256,
      "name" : "separable_conv2d_5_step_1",
      "has_batch_norm" : 0,
      "type" : "convolution",
      "n_groups" : 256,
      "pad_t" : 0,
      "has_biases" : 0,
      "C" : 256,
      "bottom" : "up_sampling2d_1_output",
      "weights" : {

      },
      "Nx" : 2,
      "pad_mode" : 1,
      "pad_value" : 0,
      "Ny" : 2,
      "n_parallel" : 1
    },
    {
      "pad_r" : 0,
      "fused_relu" : 1,
      "fused_tanh" : 0,
      "debug_info" : "separable_conv2d_5_step_2",
      "pad_fill_mode" : 0,
      "pad_b" : 0,
      "pad_l" : 0,
      "top" : "separable_conv2d_5__activation___output",
      "blob_weights" : 63,
      "K" : 256,
      "blob_biases" : 61,
      "name" : "separable_conv2d_5_step_2",
      "has_batch_norm" : 0,
      "type" : "convolution",
      "n_groups" : 1,
      "pad_t" : 0,
      "has_biases" : 1,
      "C" : 128,
      "bottom" : "separable_conv2d_5_output_intermin_",
      "weights" : {

      },
      "Nx" : 1,
      "pad_mode" : 1,
      "pad_value" : 0,
      "Ny" : 1,
      "n_parallel" : 1
    },
    {
      "weights" : {

      },
      "debug_info" : "concatenate_1",
      "top" : "concatenate_1_output",
      "type" : "concat",
      "name" : "concatenate_1",
      "bottom" : "batch_normalization_4_output,separable_conv2d_5__activation___output"
    },
    {
      "pad_r" : 0,
      "fused_relu" : 0,
      "fused_tanh" : 0,
      "debug_info" : "separable_conv2d_6_step_1",
      "pad_fill_mode" : 0,
      "pad_b" : 0,
      "pad_l" : 0,
      "top" : "separable_conv2d_6_output_intermin_",
      "blob_weights" : 65,
      "K" : 256,
      "name" : "separable_conv2d_6_step_1",
      "has_batch_norm" : 0,
      "type" : "convolution",
      "n_groups" : 256,
      "pad_t" : 0,
      "has_biases" : 0,
      "C" : 256,
      "bottom" : "concatenate_1_output",
      "weights" : {

      },
      "Nx" : 3,
      "pad_mode" : 1,
      "pad_value" : 0,
      "Ny" : 3,
      "n_parallel" : 1
    },
    {
      "pad_r" : 0,
      "fused_relu" : 1,
      "fused_tanh" : 0,
      "debug_info" : "separable_conv2d_6_step_2",
      "pad_fill_mode" : 0,
      "pad_b" : 0,
      "pad_l" : 0,
      "top" : "separable_conv2d_6__activation___output",
      "blob_weights" : 69,
      "K" : 256,
      "blob_biases" : 67,
      "name" : "separable_conv2d_6_step_2",
      "has_batch_norm" : 0,
      "type" : "convolution",
      "n_groups" : 1,
      "pad_t" : 0,
      "has_biases" : 1,
      "C" : 128,
      "bottom" : "separable_conv2d_6_output_intermin_",
      "weights" : {

      },
      "Nx" : 1,
      "pad_mode" : 1,
      "pad_value" : 0,
      "Ny" : 1,
      "n_parallel" : 1
    },
    {
      "pad_r" : 0,
      "fused_relu" : 0,
      "fused_tanh" : 0,
      "debug_info" : "separable_conv2d_7_step_1",
      "pad_fill_mode" : 0,
      "pad_b" : 0,
      "pad_l" : 0,
      "top" : "separable_conv2d_7_output_intermin_",
      "blob_weights" : 71,
      "K" : 128,
      "name" : "separable_conv2d_7_step_1",
      "has_batch_norm" : 0,
      "type" : "convolution",
      "n_groups" : 128,
      "pad_t" : 0,
      "has_biases" : 0,
      "C" : 128,
      "bottom" : "separable_conv2d_6__activation___output",
      "weights" : {

      },
      "Nx" : 3,
      "pad_mode" : 1,
      "pad_value" : 0,
      "Ny" : 3,
      "n_parallel" : 1
    },
    {
      "pad_r" : 0,
      "fused_relu" : 1,
      "fused_tanh" : 0,
      "debug_info" : "separable_conv2d_7_step_2",
      "pad_fill_mode" : 0,
      "pad_b" : 0,
      "pad_l" : 0,
      "top" : "separable_conv2d_7__activation___output",
      "blob_weights" : 75,
      "K" : 128,
      "blob_biases" : 73,
      "name" : "separable_conv2d_7_step_2",
      "has_batch_norm" : 0,
      "type" : "convolution",
      "n_groups" : 1,
      "pad_t" : 0,
      "has_biases" : 1,
      "C" : 128,
      "bottom" : "separable_conv2d_7_output_intermin_",
      "weights" : {

      },
      "Nx" : 1,
      "pad_mode" : 1,
      "pad_value" : 0,
      "Ny" : 1,
      "n_parallel" : 1
    },
    {
      "name" : "batch_normalization_6",
      "bottom" : "separable_conv2d_7__activation___output",
      "weights" : {

      },
      "debug_info" : "batch_normalization_6",
      "top" : "batch_normalization_6_output",
      "C" : 128,
      "blob_batchnorm_params" : 77,
      "type" : "batchnorm"
    },
    {
      "top" : "up_sampling2d_2_output",
      "use_fractional_scale_factors" : false,
      "weights" : {

      },
      "fractional_scaling_factor_y" : 1,
      "type" : "upsample",
      "scaling_factor_x" : 2,
      "mode" : 1,
      "align_corners" : 0,
      "bottom" : "batch_normalization_6_output",
      "debug_info" : "up_sampling2d_2",
      "fractional_scaling_factor_x" : 1,
      "is_legacy_mode" : 1,
      "name" : "up_sampling2d_2",
      "scaling_factor_y" : 2
    },
    {
      "pad_r" : 0,
      "fused_relu" : 1,
      "fused_tanh" : 0,
      "debug_info" : "conv2d_7",
      "pad_fill_mode" : 0,
      "pad_b" : 0,
      "pad_l" : 0,
      "top" : "conv2d_7__activation___output",
      "blob_weights" : 81,
      "K" : 128,
      "blob_biases" : 79,
      "name" : "conv2d_7",
      "has_batch_norm" : 0,
      "type" : "convolution",
      "n_groups" : 1,
      "pad_t" : 0,
      "has_biases" : 1,
      "C" : 64,
      "bottom" : "up_sampling2d_2_output",
      "weights" : {

      },
      "Nx" : 2,
      "pad_mode" : 1,
      "pad_value" : 0,
      "Ny" : 2,
      "n_parallel" : 1
    },
    {
      "weights" : {

      },
      "debug_info" : "concatenate_2",
      "top" : "concatenate_2_output",
      "type" : "concat",
      "name" : "concatenate_2",
      "bottom" : "batch_normalization_3_output,conv2d_7__activation___output"
    },
    {
      "pad_r" : 0,
      "fused_relu" : 1,
      "fused_tanh" : 0,
      "debug_info" : "conv2d_8",
      "pad_fill_mode" : 0,
      "pad_b" : 0,
      "pad_l" : 0,
      "top" : "conv2d_8__activation___output",
      "blob_weights" : 85,
      "K" : 128,
      "blob_biases" : 83,
      "name" : "conv2d_8",
      "has_batch_norm" : 0,
      "type" : "convolution",
      "n_groups" : 1,
      "pad_t" : 0,
      "has_biases" : 1,
      "C" : 64,
      "bottom" : "concatenate_2_output",
      "weights" : {

      },
      "Nx" : 3,
      "pad_mode" : 1,
      "pad_value" : 0,
      "Ny" : 3,
      "n_parallel" : 1
    },
    {
      "pad_r" : 0,
      "fused_relu" : 1,
      "fused_tanh" : 0,
      "debug_info" : "conv2d_9",
      "pad_fill_mode" : 0,
      "pad_b" : 0,
      "pad_l" : 0,
      "top" : "conv2d_9__activation___output",
      "blob_weights" : 89,
      "K" : 64,
      "blob_biases" : 87,
      "name" : "conv2d_9",
      "has_batch_norm" : 0,
      "type" : "convolution",
      "n_groups" : 1,
      "pad_t" : 0,
      "has_biases" : 1,
      "C" : 64,
      "bottom" : "conv2d_8__activation___output",
      "weights" : {

      },
      "Nx" : 3,
      "pad_mode" : 1,
      "pad_value" : 0,
      "Ny" : 3,
      "n_parallel" : 1
    },
    {
      "name" : "batch_normalization_7",
      "bottom" : "conv2d_9__activation___output",
      "weights" : {

      },
      "debug_info" : "batch_normalization_7",
      "top" : "batch_normalization_7_output",
      "C" : 64,
      "blob_batchnorm_params" : 91,
      "type" : "batchnorm"
    },
    {
      "top" : "up_sampling2d_3_output",
      "use_fractional_scale_factors" : false,
      "weights" : {

      },
      "fractional_scaling_factor_y" : 1,
      "type" : "upsample",
      "scaling_factor_x" : 2,
      "mode" : 1,
      "align_corners" : 0,
      "bottom" : "batch_normalization_7_output",
      "debug_info" : "up_sampling2d_3",
      "fractional_scaling_factor_x" : 1,
      "is_legacy_mode" : 1,
      "name" : "up_sampling2d_3",
      "scaling_factor_y" : 2
    },
    {
      "pad_r" : 0,
      "fused_relu" : 1,
      "fused_tanh" : 0,
      "debug_info" : "conv2d_10",
      "pad_fill_mode" : 0,
      "pad_b" : 0,
      "pad_l" : 0,
      "top" : "conv2d_10__activation___output",
      "blob_weights" : 95,
      "K" : 64,
      "blob_biases" : 93,
      "name" : "conv2d_10",
      "has_batch_norm" : 0,
      "type" : "convolution",
      "n_groups" : 1,
      "pad_t" : 0,
      "has_biases" : 1,
      "C" : 32,
      "bottom" : "up_sampling2d_3_output",
      "weights" : {

      },
      "Nx" : 2,
      "pad_mode" : 1,
      "pad_value" : 0,
      "Ny" : 2,
      "n_parallel" : 1
    },
    {
      "weights" : {

      },
      "debug_info" : "concatenate_3",
      "top" : "concatenate_3_output",
      "type" : "concat",
      "name" : "concatenate_3",
      "bottom" : "batch_normalization_2_output,conv2d_10__activation___output"
    },
    {
      "pad_r" : 0,
      "fused_relu" : 1,
      "fused_tanh" : 0,
      "debug_info" : "conv2d_11",
      "pad_fill_mode" : 0,
      "pad_b" : 0,
      "pad_l" : 0,
      "top" : "conv2d_11__activation___output",
      "blob_weights" : 99,
      "K" : 64,
      "blob_biases" : 97,
      "name" : "conv2d_11",
      "has_batch_norm" : 0,
      "type" : "convolution",
      "n_groups" : 1,
      "pad_t" : 0,
      "has_biases" : 1,
      "C" : 32,
      "bottom" : "concatenate_3_output",
      "weights" : {

      },
      "Nx" : 3,
      "pad_mode" : 1,
      "pad_value" : 0,
      "Ny" : 3,
      "n_parallel" : 1
    },
    {
      "pad_r" : 0,
      "fused_relu" : 1,
      "fused_tanh" : 0,
      "debug_info" : "conv2d_12",
      "pad_fill_mode" : 0,
      "pad_b" : 0,
      "pad_l" : 0,
      "top" : "conv2d_12__activation___output",
      "blob_weights" : 103,
      "K" : 32,
      "blob_biases" : 101,
      "name" : "conv2d_12",
      "has_batch_norm" : 0,
      "type" : "convolution",
      "n_groups" : 1,
      "pad_t" : 0,
      "has_biases" : 1,
      "C" : 32,
      "bottom" : "conv2d_11__activation___output",
      "weights" : {

      },
      "Nx" : 3,
      "pad_mode" : 1,
      "pad_value" : 0,
      "Ny" : 3,
      "n_parallel" : 1
    },
    {
      "name" : "batch_normalization_8",
      "bottom" : "conv2d_12__activation___output",
      "weights" : {

      },
      "debug_info" : "batch_normalization_8",
      "top" : "batch_normalization_8_output",
      "C" : 32,
      "blob_batchnorm_params" : 105,
      "type" : "batchnorm"
    },
    {
      "top" : "up_sampling2d_4_output",
      "use_fractional_scale_factors" : false,
      "weights" : {

      },
      "fractional_scaling_factor_y" : 1,
      "type" : "upsample",
      "scaling_factor_x" : 2,
      "mode" : 1,
      "align_corners" : 0,
      "bottom" : "batch_normalization_8_output",
      "debug_info" : "up_sampling2d_4",
      "fractional_scaling_factor_x" : 1,
      "is_legacy_mode" : 1,
      "name" : "up_sampling2d_4",
      "scaling_factor_y" : 2
    },
    {
      "pad_r" : 0,
      "fused_relu" : 1,
      "fused_tanh" : 0,
      "debug_info" : "conv2d_13",
      "pad_fill_mode" : 0,
      "pad_b" : 0,
      "pad_l" : 0,
      "top" : "conv2d_13__activation___output",
      "blob_weights" : 109,
      "K" : 32,
      "blob_biases" : 107,
      "name" : "conv2d_13",
      "has_batch_norm" : 0,
      "type" : "convolution",
      "n_groups" : 1,
      "pad_t" : 0,
      "has_biases" : 1,
      "C" : 16,
      "bottom" : "up_sampling2d_4_output",
      "weights" : {

      },
      "Nx" : 2,
      "pad_mode" : 1,
      "pad_value" : 0,
      "Ny" : 2,
      "n_parallel" : 1
    },
    {
      "weights" : {

      },
      "debug_info" : "concatenate_4",
      "top" : "concatenate_4_output",
      "type" : "concat",
      "name" : "concatenate_4",
      "bottom" : "batch_normalization_1_output,conv2d_13__activation___output"
    },
    {
      "pad_r" : 0,
      "fused_relu" : 1,
      "fused_tanh" : 0,
      "debug_info" : "conv2d_14",
      "pad_fill_mode" : 0,
      "pad_b" : 0,
      "pad_l" : 0,
      "top" : "conv2d_14__activation___output",
      "blob_weights" : 113,
      "K" : 32,
      "blob_biases" : 111,
      "name" : "conv2d_14",
      "has_batch_norm" : 0,
      "type" : "convolution",
      "n_groups" : 1,
      "pad_t" : 0,
      "has_biases" : 1,
      "C" : 16,
      "bottom" : "concatenate_4_output",
      "weights" : {

      },
      "Nx" : 3,
      "pad_mode" : 1,
      "pad_value" : 0,
      "Ny" : 3,
      "n_parallel" : 1
    },
    {
      "pad_r" : 0,
      "fused_relu" : 1,
      "fused_tanh" : 0,
      "debug_info" : "conv2d_15",
      "pad_fill_mode" : 0,
      "pad_b" : 0,
      "pad_l" : 0,
      "top" : "conv2d_15__activation___output",
      "blob_weights" : 117,
      "K" : 16,
      "blob_biases" : 115,
      "name" : "conv2d_15",
      "has_batch_norm" : 0,
      "type" : "convolution",
      "n_groups" : 1,
      "pad_t" : 0,
      "has_biases" : 1,
      "C" : 16,
      "bottom" : "conv2d_14__activation___output",
      "weights" : {

      },
      "Nx" : 3,
      "pad_mode" : 1,
      "pad_value" : 0,
      "Ny" : 3,
      "n_parallel" : 1
    },
    {
      "pad_r" : 0,
      "fused_relu" : 1,
      "fused_tanh" : 0,
      "debug_info" : "conv2d_16",
      "pad_fill_mode" : 0,
      "pad_b" : 0,
      "pad_l" : 0,
      "top" : "conv2d_16__activation___output",
      "blob_weights" : 121,
      "K" : 16,
      "blob_biases" : 119,
      "name" : "conv2d_16",
      "has_batch_norm" : 0,
      "type" : "convolution",
      "n_groups" : 1,
      "pad_t" : 0,
      "has_biases" : 1,
      "C" : 2,
      "bottom" : "conv2d_15__activation___output",
      "weights" : {

      },
      "Nx" : 3,
      "pad_mode" : 1,
      "pad_value" : 0,
      "Ny" : 3,
      "n_parallel" : 1
    },
    {
      "name" : "batch_normalization_9",
      "bottom" : "conv2d_16__activation___output",
      "weights" : {

      },
      "debug_info" : "batch_normalization_9",
      "top" : "batch_normalization_9_output",
      "C" : 2,
      "blob_batchnorm_params" : 123,
      "type" : "batchnorm"
    },
    {
      "pad_r" : 0,
      "fused_relu" : 0,
      "fused_tanh" : 0,
      "debug_info" : "conv2d_17",
      "pad_fill_mode" : 0,
      "pad_b" : 0,
      "pad_l" : 0,
      "top" : "conv2d_17_output",
      "blob_weights" : 127,
      "K" : 2,
      "blob_biases" : 125,
      "name" : "conv2d_17",
      "has_batch_norm" : 0,
      "type" : "convolution",
      "n_groups" : 1,
      "pad_t" : 0,
      "has_biases" : 1,
      "C" : 1,
      "bottom" : "batch_normalization_9_output",
      "weights" : {

      },
      "Nx" : 1,
      "pad_mode" : 0,
      "pad_value" : 0,
      "Ny" : 1,
      "n_parallel" : 1
    },
    {
      "bottom" : "conv2d_17_output",
      "weights" : {

      },
      "mode" : 3,
      "debug_info" : "conv2d_17__activation__",
      "top" : "segmentation",
      "type" : "activation",
      "name" : "conv2d_17__activation__"
    },
    {
      "bottom" : "segmentation",
      "alpha" : 255,
      "beta" : 0,
      "mode" : 6,
      "weights" : {

      },
      "debug_info" : "convert_to_image",
      "top" : "image_output",
      "type" : "activation",
      "name" : "convert_to_image",
      "attributes" : {
        "is_output" : 1
      }
    }
  ],
  "transform_params" : {
    "image" : {
      "bias_a" : 0,
      "bias_g" : 0,
      "bias_r" : 0,
      "bias_b" : 0,
      "center_mean" : 0,
      "is_network_bgr" : 0,
      "scale" : 0.0039215688593685627
    }
  },
  "storage" : "model.espresso.weights",
  "metadata_in_weights" : [

  ],
  "properties" : {

  },
  "analyses" : {

  },
  "format_version" : 200
}