{
  "layers" : [
    {
      "pad_r" : 0,
      "fused_relu" : 1,
      "fused_tanh" : 0,
      "debug_info" : "Unet_TF\/conv2d_1\/BiasAdd",
      "pad_fill_mode" : 0,
      "pad_b" : 0,
      "pad_l" : 0,
      "top" : "Unet_TF\/activation_1\/Relu",
      "K" : 3,
      "blob_biases" : 1,
      "name" : "Unet_TF\/conv2d_1\/BiasAdd",
      "has_batch_norm" : 0,
      "type" : "convolution",
      "n_groups" : 1,
      "pad_t" : 0,
      "has_biases" : 1,
      "C" : 16,
      "bottom" : "image",
      "weights" : {
        "W_U8" : 3,
        "per_ch_qscale" : 7,
        "per_ch_qbias" : 5
      },
      "Nx" : 3,
      "pad_mode" : 1,
      "pad_value" : 0,
      "Ny" : 3,
      "n_parallel" : 1
    },
    {
      "pad_r" : 0,
      "fused_relu" : 1,
      "fused_tanh" : 0,
      "debug_info" : "Unet_TF\/conv2d_2\/BiasAdd",
      "pad_fill_mode" : 0,
      "pad_b" : 0,
      "pad_l" : 0,
      "top" : "Unet_TF\/activation_2\/Relu",
      "K" : 16,
      "blob_biases" : 9,
      "name" : "Unet_TF\/conv2d_2\/BiasAdd",
      "has_batch_norm" : 0,
      "type" : "convolution",
      "n_groups" : 1,
      "pad_t" : 0,
      "has_biases" : 1,
      "C" : 16,
      "bottom" : "Unet_TF\/activation_1\/Relu",
      "weights" : {
        "W_U8" : 11,
        "per_ch_qscale" : 15,
        "per_ch_qbias" : 13
      },
      "Nx" : 3,
      "pad_mode" : 1,
      "pad_value" : 0,
      "Ny" : 3,
      "n_parallel" : 1
    },
    {
      "pad_r" : 0,
      "debug_info" : "max_pool_80",
      "pad_fill_mode" : 0,
      "pad_b" : 0,
      "pad_l" : 0,
      "size_x" : 2,
      "top" : "max_pool_80",
      "top_shape_style" : 0,
      "stride_x" : 2,
      "avg_or_max" : 1,
      "average_count_exclude_padding" : 1,
      "type" : "pool",
      "name" : "max_pool_80",
      "pad_t" : 0,
      "stride_y" : 2,
      "bottom" : "Unet_TF\/activation_2\/Relu",
      "weights" : {

      },
      "pad_mode" : 2,
      "size_y" : 2,
      "pad_value" : 0
    },
    {
      "pad_r" : 0,
      "fused_relu" : 1,
      "fused_tanh" : 0,
      "debug_info" : "Unet_TF\/conv2d_3\/BiasAdd",
      "pad_fill_mode" : 0,
      "pad_b" : 0,
      "pad_l" : 0,
      "top" : "Unet_TF\/activation_3\/Relu",
      "K" : 16,
      "blob_biases" : 17,
      "name" : "Unet_TF\/conv2d_3\/BiasAdd",
      "has_batch_norm" : 0,
      "type" : "convolution",
      "n_groups" : 1,
      "pad_t" : 0,
      "has_biases" : 1,
      "C" : 32,
      "bottom" : "max_pool_80",
      "weights" : {
        "W_U8" : 19,
        "per_ch_qscale" : 23,
        "per_ch_qbias" : 21
      },
      "Nx" : 3,
      "pad_mode" : 1,
      "pad_value" : 0,
      "Ny" : 3,
      "n_parallel" : 1
    },
    {
      "pad_r" : 0,
      "fused_relu" : 1,
      "fused_tanh" : 0,
      "debug_info" : "Unet_TF\/conv2d_4\/BiasAdd",
      "pad_fill_mode" : 0,
      "pad_b" : 0,
      "pad_l" : 0,
      "top" : "Unet_TF\/activation_4\/Relu",
      "K" : 32,
      "blob_biases" : 25,
      "name" : "Unet_TF\/conv2d_4\/BiasAdd",
      "has_batch_norm" : 0,
      "type" : "convolution",
      "n_groups" : 1,
      "pad_t" : 0,
      "has_biases" : 1,
      "C" : 32,
      "bottom" : "Unet_TF\/activation_3\/Relu",
      "weights" : {
        "W_U8" : 27,
        "per_ch_qscale" : 31,
        "per_ch_qbias" : 29
      },
      "Nx" : 3,
      "pad_mode" : 1,
      "pad_value" : 0,
      "Ny" : 3,
      "n_parallel" : 1
    },
    {
      "pad_r" : 0,
      "debug_info" : "max_pool_81",
      "pad_fill_mode" : 0,
      "pad_b" : 0,
      "pad_l" : 0,
      "size_x" : 2,
      "top" : "max_pool_81",
      "top_shape_style" : 0,
      "stride_x" : 2,
      "avg_or_max" : 1,
      "average_count_exclude_padding" : 1,
      "type" : "pool",
      "name" : "max_pool_81",
      "pad_t" : 0,
      "stride_y" : 2,
      "bottom" : "Unet_TF\/activation_4\/Relu",
      "weights" : {

      },
      "pad_mode" : 2,
      "size_y" : 2,
      "pad_value" : 0
    },
    {
      "pad_r" : 0,
      "fused_relu" : 1,
      "fused_tanh" : 0,
      "debug_info" : "Unet_TF\/conv2d_5\/BiasAdd",
      "pad_fill_mode" : 0,
      "pad_b" : 0,
      "pad_l" : 0,
      "top" : "Unet_TF\/activation_5\/Relu",
      "K" : 32,
      "blob_biases" : 33,
      "name" : "Unet_TF\/conv2d_5\/BiasAdd",
      "has_batch_norm" : 0,
      "type" : "convolution",
      "n_groups" : 1,
      "pad_t" : 0,
      "has_biases" : 1,
      "C" : 64,
      "bottom" : "max_pool_81",
      "weights" : {
        "W_U8" : 35,
        "per_ch_qscale" : 39,
        "per_ch_qbias" : 37
      },
      "Nx" : 3,
      "pad_mode" : 1,
      "pad_value" : 0,
      "Ny" : 3,
      "n_parallel" : 1
    },
    {
      "pad_r" : 0,
      "fused_relu" : 1,
      "fused_tanh" : 0,
      "debug_info" : "Unet_TF\/conv2d_6\/BiasAdd",
      "pad_fill_mode" : 0,
      "pad_b" : 0,
      "pad_l" : 0,
      "top" : "Unet_TF\/activation_6\/Relu",
      "K" : 64,
      "blob_biases" : 41,
      "name" : "Unet_TF\/conv2d_6\/BiasAdd",
      "has_batch_norm" : 0,
      "type" : "convolution",
      "n_groups" : 1,
      "pad_t" : 0,
      "has_biases" : 1,
      "C" : 64,
      "bottom" : "Unet_TF\/activation_5\/Relu",
      "weights" : {
        "W_U8" : 43,
        "per_ch_qscale" : 47,
        "per_ch_qbias" : 45
      },
      "Nx" : 3,
      "pad_mode" : 1,
      "pad_value" : 0,
      "Ny" : 3,
      "n_parallel" : 1
    },
    {
      "pad_r" : 0,
      "debug_info" : "max_pool_82",
      "pad_fill_mode" : 0,
      "pad_b" : 0,
      "pad_l" : 0,
      "size_x" : 2,
      "top" : "max_pool_82",
      "top_shape_style" : 0,
      "stride_x" : 2,
      "avg_or_max" : 1,
      "average_count_exclude_padding" : 1,
      "type" : "pool",
      "name" : "max_pool_82",
      "pad_t" : 0,
      "stride_y" : 2,
      "bottom" : "Unet_TF\/activation_6\/Relu",
      "weights" : {

      },
      "pad_mode" : 2,
      "size_y" : 2,
      "pad_value" : 0
    },
    {
      "pad_r" : 0,
      "fused_relu" : 0,
      "fused_tanh" : 0,
      "debug_info" : "Unet_TF\/separable_conv2d_1\/separable_conv2d\/depthwisex",
      "pad_fill_mode" : 0,
      "pad_b" : 0,
      "pad_l" : 0,
      "top" : "Unet_TF\/separable_conv2d_1\/separable_conv2d\/depthwisex",
      "K" : 64,
      "name" : "Unet_TF\/separable_conv2d_1\/separable_conv2d\/depthwisex",
      "has_batch_norm" : 0,
      "type" : "convolution",
      "n_groups" : 64,
      "pad_t" : 0,
      "has_biases" : 0,
      "C" : 64,
      "bottom" : "max_pool_82",
      "weights" : {
        "W_U8" : 49,
        "per_ch_qscale" : 53,
        "per_ch_qbias" : 51
      },
      "Nx" : 3,
      "pad_mode" : 1,
      "pad_value" : 0,
      "Ny" : 3,
      "n_parallel" : 1
    },
    {
      "pad_r" : 0,
      "fused_relu" : 1,
      "fused_tanh" : 0,
      "debug_info" : "Unet_TF\/separable_conv2d_1\/BiasAdd",
      "pad_fill_mode" : 0,
      "pad_b" : 0,
      "pad_l" : 0,
      "top" : "Unet_TF\/activation_7\/Relu",
      "K" : 64,
      "blob_biases" : 55,
      "name" : "Unet_TF\/separable_conv2d_1\/BiasAdd",
      "has_batch_norm" : 0,
      "type" : "convolution",
      "n_groups" : 1,
      "pad_t" : 0,
      "has_biases" : 1,
      "C" : 128,
      "bottom" : "Unet_TF\/separable_conv2d_1\/separable_conv2d\/depthwisex",
      "weights" : {
        "W_U8" : 57,
        "per_ch_qscale" : 61,
        "per_ch_qbias" : 59
      },
      "Nx" : 1,
      "pad_mode" : 0,
      "pad_value" : 0,
      "Ny" : 1,
      "n_parallel" : 1
    },
    {
      "pad_r" : 0,
      "fused_relu" : 0,
      "fused_tanh" : 0,
      "debug_info" : "Unet_TF\/separable_conv2d_2\/separable_conv2d\/depthwisex",
      "pad_fill_mode" : 0,
      "pad_b" : 0,
      "pad_l" : 0,
      "top" : "Unet_TF\/separable_conv2d_2\/separable_conv2d\/depthwisex",
      "K" : 128,
      "name" : "Unet_TF\/separable_conv2d_2\/separable_conv2d\/depthwisex",
      "has_batch_norm" : 0,
      "type" : "convolution",
      "n_groups" : 128,
      "pad_t" : 0,
      "has_biases" : 0,
      "C" : 128,
      "bottom" : "Unet_TF\/activation_7\/Relu",
      "weights" : {
        "W_U8" : 63,
        "per_ch_qscale" : 67,
        "per_ch_qbias" : 65
      },
      "Nx" : 3,
      "pad_mode" : 1,
      "pad_value" : 0,
      "Ny" : 3,
      "n_parallel" : 1
    },
    {
      "pad_r" : 0,
      "fused_relu" : 1,
      "fused_tanh" : 0,
      "debug_info" : "Unet_TF\/separable_conv2d_2\/BiasAdd",
      "pad_fill_mode" : 0,
      "pad_b" : 0,
      "pad_l" : 0,
      "top" : "Unet_TF\/activation_8\/Relu",
      "K" : 128,
      "blob_biases" : 69,
      "name" : "Unet_TF\/separable_conv2d_2\/BiasAdd",
      "has_batch_norm" : 0,
      "type" : "convolution",
      "n_groups" : 1,
      "pad_t" : 0,
      "has_biases" : 1,
      "C" : 128,
      "bottom" : "Unet_TF\/separable_conv2d_2\/separable_conv2d\/depthwisex",
      "weights" : {
        "W_U8" : 71,
        "per_ch_qscale" : 75,
        "per_ch_qbias" : 73
      },
      "Nx" : 1,
      "pad_mode" : 0,
      "pad_value" : 0,
      "Ny" : 1,
      "n_parallel" : 1
    },
    {
      "pad_r" : 0,
      "debug_info" : "max_pool_83",
      "pad_fill_mode" : 0,
      "pad_b" : 0,
      "pad_l" : 0,
      "size_x" : 2,
      "top" : "max_pool_83",
      "top_shape_style" : 0,
      "stride_x" : 2,
      "avg_or_max" : 1,
      "average_count_exclude_padding" : 1,
      "type" : "pool",
      "name" : "max_pool_83",
      "pad_t" : 0,
      "stride_y" : 2,
      "bottom" : "Unet_TF\/activation_8\/Relu",
      "weights" : {

      },
      "pad_mode" : 2,
      "size_y" : 2,
      "pad_value" : 0
    },
    {
      "pad_r" : 0,
      "fused_relu" : 0,
      "fused_tanh" : 0,
      "debug_info" : "Unet_TF\/separable_conv2d_3\/separable_conv2d\/depthwisex",
      "pad_fill_mode" : 0,
      "pad_b" : 0,
      "pad_l" : 0,
      "top" : "Unet_TF\/separable_conv2d_3\/separable_conv2d\/depthwisex",
      "K" : 128,
      "name" : "Unet_TF\/separable_conv2d_3\/separable_conv2d\/depthwisex",
      "has_batch_norm" : 0,
      "type" : "convolution",
      "n_groups" : 128,
      "pad_t" : 0,
      "has_biases" : 0,
      "C" : 128,
      "bottom" : "max_pool_83",
      "weights" : {
        "W_U8" : 77,
        "per_ch_qscale" : 81,
        "per_ch_qbias" : 79
      },
      "Nx" : 3,
      "pad_mode" : 1,
      "pad_value" : 0,
      "Ny" : 3,
      "n_parallel" : 1
    },
    {
      "pad_r" : 0,
      "fused_relu" : 1,
      "fused_tanh" : 0,
      "debug_info" : "Unet_TF\/separable_conv2d_3\/BiasAdd",
      "pad_fill_mode" : 0,
      "pad_b" : 0,
      "pad_l" : 0,
      "top" : "Unet_TF\/activation_9\/Relu",
      "K" : 128,
      "blob_biases" : 83,
      "name" : "Unet_TF\/separable_conv2d_3\/BiasAdd",
      "has_batch_norm" : 0,
      "type" : "convolution",
      "n_groups" : 1,
      "pad_t" : 0,
      "has_biases" : 1,
      "C" : 256,
      "bottom" : "Unet_TF\/separable_conv2d_3\/separable_conv2d\/depthwisex",
      "weights" : {
        "W_U8" : 85,
        "per_ch_qscale" : 89,
        "per_ch_qbias" : 87
      },
      "Nx" : 1,
      "pad_mode" : 0,
      "pad_value" : 0,
      "Ny" : 1,
      "n_parallel" : 1
    },
    {
      "pad_r" : 0,
      "fused_relu" : 0,
      "fused_tanh" : 0,
      "debug_info" : "Unet_TF\/separable_conv2d_4\/separable_conv2d\/depthwisex",
      "pad_fill_mode" : 0,
      "pad_b" : 0,
      "pad_l" : 0,
      "top" : "Unet_TF\/separable_conv2d_4\/separable_conv2d\/depthwisex",
      "K" : 256,
      "name" : "Unet_TF\/separable_conv2d_4\/separable_conv2d\/depthwisex",
      "has_batch_norm" : 0,
      "type" : "convolution",
      "n_groups" : 256,
      "pad_t" : 0,
      "has_biases" : 0,
      "C" : 256,
      "bottom" : "Unet_TF\/activation_9\/Relu",
      "weights" : {
        "W_U8" : 91,
        "per_ch_qscale" : 95,
        "per_ch_qbias" : 93
      },
      "Nx" : 3,
      "pad_mode" : 1,
      "pad_value" : 0,
      "Ny" : 3,
      "n_parallel" : 1
    },
    {
      "pad_r" : 0,
      "fused_relu" : 1,
      "fused_tanh" : 0,
      "debug_info" : "Unet_TF\/separable_conv2d_4\/BiasAdd",
      "pad_fill_mode" : 0,
      "pad_b" : 0,
      "pad_l" : 0,
      "top" : "Unet_TF\/activation_10\/Relu",
      "K" : 256,
      "blob_biases" : 97,
      "name" : "Unet_TF\/separable_conv2d_4\/BiasAdd",
      "has_batch_norm" : 0,
      "type" : "convolution",
      "n_groups" : 1,
      "pad_t" : 0,
      "has_biases" : 1,
      "C" : 256,
      "bottom" : "Unet_TF\/separable_conv2d_4\/separable_conv2d\/depthwisex",
      "weights" : {
        "W_U8" : 99,
        "per_ch_qscale" : 103,
        "per_ch_qbias" : 101
      },
      "Nx" : 1,
      "pad_mode" : 0,
      "pad_value" : 0,
      "Ny" : 1,
      "n_parallel" : 1
    },
    {
      "top" : "Unet_TF\/up_sampling2d_1\/resize\/ResizeBilinear_channel_first_upsample_bilinear",
      "use_fractional_scale_factors" : false,
      "weights" : {

      },
      "fractional_scaling_factor_y" : 1,
      "type" : "upsample",
      "scaling_factor_x" : 2,
      "mode" : 1,
      "align_corners" : 0,
      "bottom" : "Unet_TF\/activation_10\/Relu",
      "debug_info" : "Unet_TF\/up_sampling2d_1\/resize\/ResizeBilinear_channel_first_upsample_bilinear",
      "fractional_scaling_factor_x" : 1,
      "is_legacy_mode" : 0,
      "name" : "Unet_TF\/up_sampling2d_1\/resize\/ResizeBilinear_channel_first_upsample_bilinear",
      "scaling_factor_y" : 2
    },
    {
      "pad_r" : 0,
      "fused_relu" : 0,
      "fused_tanh" : 0,
      "debug_info" : "Unet_TF\/separable_conv2d_5\/separable_conv2d\/depthwisex",
      "pad_fill_mode" : 0,
      "pad_b" : 0,
      "pad_l" : 0,
      "top" : "Unet_TF\/separable_conv2d_5\/separable_conv2d\/depthwisex",
      "K" : 256,
      "name" : "Unet_TF\/separable_conv2d_5\/separable_conv2d\/depthwisex",
      "has_batch_norm" : 0,
      "type" : "convolution",
      "n_groups" : 256,
      "pad_t" : 0,
      "has_biases" : 0,
      "C" : 256,
      "bottom" : "Unet_TF\/up_sampling2d_1\/resize\/ResizeBilinear_channel_first_upsample_bilinear",
      "weights" : {
        "W_U8" : 105,
        "per_ch_qscale" : 109,
        "per_ch_qbias" : 107
      },
      "Nx" : 2,
      "pad_mode" : 1,
      "pad_value" : 0,
      "Ny" : 2,
      "n_parallel" : 1
    },
    {
      "pad_r" : 0,
      "fused_relu" : 1,
      "fused_tanh" : 0,
      "debug_info" : "Unet_TF\/separable_conv2d_5\/BiasAdd",
      "pad_fill_mode" : 0,
      "pad_b" : 0,
      "pad_l" : 0,
      "top" : "Unet_TF\/activation_11\/Relu",
      "K" : 256,
      "blob_biases" : 111,
      "name" : "Unet_TF\/separable_conv2d_5\/BiasAdd",
      "has_batch_norm" : 0,
      "type" : "convolution",
      "n_groups" : 1,
      "pad_t" : 0,
      "has_biases" : 1,
      "C" : 128,
      "bottom" : "Unet_TF\/separable_conv2d_5\/separable_conv2d\/depthwisex",
      "weights" : {
        "W_U8" : 113,
        "per_ch_qscale" : 117,
        "per_ch_qbias" : 115
      },
      "Nx" : 1,
      "pad_mode" : 0,
      "pad_value" : 0,
      "Ny" : 1,
      "n_parallel" : 1
    },
    {
      "weights" : {

      },
      "debug_info" : "Unet_TF\/concatenate_1\/concat",
      "top" : "Unet_TF\/concatenate_1\/concat",
      "type" : "concat",
      "name" : "Unet_TF\/concatenate_1\/concat",
      "bottom" : "Unet_TF\/activation_8\/Relu,Unet_TF\/activation_11\/Relu"
    },
    {
      "pad_r" : 0,
      "fused_relu" : 0,
      "fused_tanh" : 0,
      "debug_info" : "Unet_TF\/separable_conv2d_6\/separable_conv2d\/depthwisex",
      "pad_fill_mode" : 0,
      "pad_b" : 0,
      "pad_l" : 0,
      "top" : "Unet_TF\/separable_conv2d_6\/separable_conv2d\/depthwisex",
      "K" : 256,
      "name" : "Unet_TF\/separable_conv2d_6\/separable_conv2d\/depthwisex",
      "has_batch_norm" : 0,
      "type" : "convolution",
      "n_groups" : 256,
      "pad_t" : 0,
      "has_biases" : 0,
      "C" : 256,
      "bottom" : "Unet_TF\/concatenate_1\/concat",
      "weights" : {
        "W_U8" : 119,
        "per_ch_qscale" : 123,
        "per_ch_qbias" : 121
      },
      "Nx" : 3,
      "pad_mode" : 1,
      "pad_value" : 0,
      "Ny" : 3,
      "n_parallel" : 1
    },
    {
      "pad_r" : 0,
      "fused_relu" : 1,
      "fused_tanh" : 0,
      "debug_info" : "Unet_TF\/separable_conv2d_6\/BiasAdd",
      "pad_fill_mode" : 0,
      "pad_b" : 0,
      "pad_l" : 0,
      "top" : "Unet_TF\/activation_12\/Relu",
      "K" : 256,
      "blob_biases" : 125,
      "name" : "Unet_TF\/separable_conv2d_6\/BiasAdd",
      "has_batch_norm" : 0,
      "type" : "convolution",
      "n_groups" : 1,
      "pad_t" : 0,
      "has_biases" : 1,
      "C" : 128,
      "bottom" : "Unet_TF\/separable_conv2d_6\/separable_conv2d\/depthwisex",
      "weights" : {
        "W_U8" : 127,
        "per_ch_qscale" : 131,
        "per_ch_qbias" : 129
      },
      "Nx" : 1,
      "pad_mode" : 0,
      "pad_value" : 0,
      "Ny" : 1,
      "n_parallel" : 1
    },
    {
      "pad_r" : 0,
      "fused_relu" : 0,
      "fused_tanh" : 0,
      "debug_info" : "Unet_TF\/separable_conv2d_7\/separable_conv2d\/depthwisex",
      "pad_fill_mode" : 0,
      "pad_b" : 0,
      "pad_l" : 0,
      "top" : "Unet_TF\/separable_conv2d_7\/separable_conv2d\/depthwisex",
      "K" : 128,
      "name" : "Unet_TF\/separable_conv2d_7\/separable_conv2d\/depthwisex",
      "has_batch_norm" : 0,
      "type" : "convolution",
      "n_groups" : 128,
      "pad_t" : 0,
      "has_biases" : 0,
      "C" : 128,
      "bottom" : "Unet_TF\/activation_12\/Relu",
      "weights" : {
        "W_U8" : 133,
        "per_ch_qscale" : 137,
        "per_ch_qbias" : 135
      },
      "Nx" : 3,
      "pad_mode" : 1,
      "pad_value" : 0,
      "Ny" : 3,
      "n_parallel" : 1
    },
    {
      "pad_r" : 0,
      "fused_relu" : 1,
      "fused_tanh" : 0,
      "debug_info" : "Unet_TF\/separable_conv2d_7\/BiasAdd",
      "pad_fill_mode" : 0,
      "pad_b" : 0,
      "pad_l" : 0,
      "top" : "Unet_TF\/activation_13\/Relu",
      "K" : 128,
      "blob_biases" : 139,
      "name" : "Unet_TF\/separable_conv2d_7\/BiasAdd",
      "has_batch_norm" : 0,
      "type" : "convolution",
      "n_groups" : 1,
      "pad_t" : 0,
      "has_biases" : 1,
      "C" : 128,
      "bottom" : "Unet_TF\/separable_conv2d_7\/separable_conv2d\/depthwisex",
      "weights" : {
        "W_U8" : 141,
        "per_ch_qscale" : 145,
        "per_ch_qbias" : 143
      },
      "Nx" : 1,
      "pad_mode" : 0,
      "pad_value" : 0,
      "Ny" : 1,
      "n_parallel" : 1
    },
    {
      "top" : "Unet_TF\/up_sampling2d_2\/resize\/ResizeBilinear_channel_first_upsample_bilinear",
      "use_fractional_scale_factors" : false,
      "weights" : {

      },
      "fractional_scaling_factor_y" : 1,
      "type" : "upsample",
      "scaling_factor_x" : 2,
      "mode" : 1,
      "align_corners" : 0,
      "bottom" : "Unet_TF\/activation_13\/Relu",
      "debug_info" : "Unet_TF\/up_sampling2d_2\/resize\/ResizeBilinear_channel_first_upsample_bilinear",
      "fractional_scaling_factor_x" : 1,
      "is_legacy_mode" : 0,
      "name" : "Unet_TF\/up_sampling2d_2\/resize\/ResizeBilinear_channel_first_upsample_bilinear",
      "scaling_factor_y" : 2
    },
    {
      "pad_r" : 0,
      "fused_relu" : 1,
      "fused_tanh" : 0,
      "debug_info" : "Unet_TF\/conv2d_7\/BiasAdd",
      "pad_fill_mode" : 0,
      "pad_b" : 0,
      "pad_l" : 0,
      "top" : "Unet_TF\/activation_14\/Relu",
      "K" : 128,
      "blob_biases" : 147,
      "name" : "Unet_TF\/conv2d_7\/BiasAdd",
      "has_batch_norm" : 0,
      "type" : "convolution",
      "n_groups" : 1,
      "pad_t" : 0,
      "has_biases" : 1,
      "C" : 64,
      "bottom" : "Unet_TF\/up_sampling2d_2\/resize\/ResizeBilinear_channel_first_upsample_bilinear",
      "weights" : {
        "W_U8" : 149,
        "per_ch_qscale" : 153,
        "per_ch_qbias" : 151
      },
      "Nx" : 2,
      "pad_mode" : 1,
      "pad_value" : 0,
      "Ny" : 2,
      "n_parallel" : 1
    },
    {
      "weights" : {

      },
      "debug_info" : "Unet_TF\/concatenate_2\/concat",
      "top" : "Unet_TF\/concatenate_2\/concat",
      "type" : "concat",
      "name" : "Unet_TF\/concatenate_2\/concat",
      "bottom" : "Unet_TF\/activation_6\/Relu,Unet_TF\/activation_14\/Relu"
    },
    {
      "pad_r" : 0,
      "fused_relu" : 1,
      "fused_tanh" : 0,
      "debug_info" : "Unet_TF\/conv2d_8\/BiasAdd",
      "pad_fill_mode" : 0,
      "pad_b" : 0,
      "pad_l" : 0,
      "top" : "Unet_TF\/activation_15\/Relu",
      "K" : 128,
      "blob_biases" : 155,
      "name" : "Unet_TF\/conv2d_8\/BiasAdd",
      "has_batch_norm" : 0,
      "type" : "convolution",
      "n_groups" : 1,
      "pad_t" : 0,
      "has_biases" : 1,
      "C" : 64,
      "bottom" : "Unet_TF\/concatenate_2\/concat",
      "weights" : {
        "W_U8" : 157,
        "per_ch_qscale" : 161,
        "per_ch_qbias" : 159
      },
      "Nx" : 3,
      "pad_mode" : 1,
      "pad_value" : 0,
      "Ny" : 3,
      "n_parallel" : 1
    },
    {
      "pad_r" : 0,
      "fused_relu" : 1,
      "fused_tanh" : 0,
      "debug_info" : "Unet_TF\/conv2d_9\/BiasAdd",
      "pad_fill_mode" : 0,
      "pad_b" : 0,
      "pad_l" : 0,
      "top" : "Unet_TF\/activation_16\/Relu",
      "K" : 64,
      "blob_biases" : 163,
      "name" : "Unet_TF\/conv2d_9\/BiasAdd",
      "has_batch_norm" : 0,
      "type" : "convolution",
      "n_groups" : 1,
      "pad_t" : 0,
      "has_biases" : 1,
      "C" : 64,
      "bottom" : "Unet_TF\/activation_15\/Relu",
      "weights" : {
        "W_U8" : 165,
        "per_ch_qscale" : 169,
        "per_ch_qbias" : 167
      },
      "Nx" : 3,
      "pad_mode" : 1,
      "pad_value" : 0,
      "Ny" : 3,
      "n_parallel" : 1
    },
    {
      "top" : "Unet_TF\/up_sampling2d_3\/resize\/ResizeBilinear_channel_first_upsample_bilinear",
      "use_fractional_scale_factors" : false,
      "weights" : {

      },
      "fractional_scaling_factor_y" : 1,
      "type" : "upsample",
      "scaling_factor_x" : 2,
      "mode" : 1,
      "align_corners" : 0,
      "bottom" : "Unet_TF\/activation_16\/Relu",
      "debug_info" : "Unet_TF\/up_sampling2d_3\/resize\/ResizeBilinear_channel_first_upsample_bilinear",
      "fractional_scaling_factor_x" : 1,
      "is_legacy_mode" : 0,
      "name" : "Unet_TF\/up_sampling2d_3\/resize\/ResizeBilinear_channel_first_upsample_bilinear",
      "scaling_factor_y" : 2
    },
    {
      "pad_r" : 0,
      "fused_relu" : 1,
      "fused_tanh" : 0,
      "debug_info" : "Unet_TF\/conv2d_10\/BiasAdd",
      "pad_fill_mode" : 0,
      "pad_b" : 0,
      "pad_l" : 0,
      "top" : "Unet_TF\/activation_17\/Relu",
      "K" : 64,
      "blob_biases" : 171,
      "name" : "Unet_TF\/conv2d_10\/BiasAdd",
      "has_batch_norm" : 0,
      "type" : "convolution",
      "n_groups" : 1,
      "pad_t" : 0,
      "has_biases" : 1,
      "C" : 32,
      "bottom" : "Unet_TF\/up_sampling2d_3\/resize\/ResizeBilinear_channel_first_upsample_bilinear",
      "weights" : {
        "W_U8" : 173,
        "per_ch_qscale" : 177,
        "per_ch_qbias" : 175
      },
      "Nx" : 2,
      "pad_mode" : 1,
      "pad_value" : 0,
      "Ny" : 2,
      "n_parallel" : 1
    },
    {
      "weights" : {

      },
      "debug_info" : "Unet_TF\/concatenate_3\/concat",
      "top" : "Unet_TF\/concatenate_3\/concat",
      "type" : "concat",
      "name" : "Unet_TF\/concatenate_3\/concat",
      "bottom" : "Unet_TF\/activation_4\/Relu,Unet_TF\/activation_17\/Relu"
    },
    {
      "pad_r" : 0,
      "fused_relu" : 1,
      "fused_tanh" : 0,
      "debug_info" : "Unet_TF\/conv2d_11\/BiasAdd",
      "pad_fill_mode" : 0,
      "pad_b" : 0,
      "pad_l" : 0,
      "top" : "Unet_TF\/activation_18\/Relu",
      "K" : 64,
      "blob_biases" : 179,
      "name" : "Unet_TF\/conv2d_11\/BiasAdd",
      "has_batch_norm" : 0,
      "type" : "convolution",
      "n_groups" : 1,
      "pad_t" : 0,
      "has_biases" : 1,
      "C" : 32,
      "bottom" : "Unet_TF\/concatenate_3\/concat",
      "weights" : {
        "W_U8" : 181,
        "per_ch_qscale" : 185,
        "per_ch_qbias" : 183
      },
      "Nx" : 3,
      "pad_mode" : 1,
      "pad_value" : 0,
      "Ny" : 3,
      "n_parallel" : 1
    },
    {
      "pad_r" : 0,
      "fused_relu" : 1,
      "fused_tanh" : 0,
      "debug_info" : "Unet_TF\/conv2d_12\/BiasAdd",
      "pad_fill_mode" : 0,
      "pad_b" : 0,
      "pad_l" : 0,
      "top" : "Unet_TF\/activation_19\/Relu",
      "K" : 32,
      "blob_biases" : 187,
      "name" : "Unet_TF\/conv2d_12\/BiasAdd",
      "has_batch_norm" : 0,
      "type" : "convolution",
      "n_groups" : 1,
      "pad_t" : 0,
      "has_biases" : 1,
      "C" : 32,
      "bottom" : "Unet_TF\/activation_18\/Relu",
      "weights" : {
        "W_U8" : 189,
        "per_ch_qscale" : 193,
        "per_ch_qbias" : 191
      },
      "Nx" : 3,
      "pad_mode" : 1,
      "pad_value" : 0,
      "Ny" : 3,
      "n_parallel" : 1
    },
    {
      "top" : "Unet_TF\/up_sampling2d_4\/resize\/ResizeBilinear_channel_first_upsample_bilinear",
      "use_fractional_scale_factors" : false,
      "weights" : {

      },
      "fractional_scaling_factor_y" : 1,
      "type" : "upsample",
      "scaling_factor_x" : 2,
      "mode" : 1,
      "align_corners" : 0,
      "bottom" : "Unet_TF\/activation_19\/Relu",
      "debug_info" : "Unet_TF\/up_sampling2d_4\/resize\/ResizeBilinear_channel_first_upsample_bilinear",
      "fractional_scaling_factor_x" : 1,
      "is_legacy_mode" : 0,
      "name" : "Unet_TF\/up_sampling2d_4\/resize\/ResizeBilinear_channel_first_upsample_bilinear",
      "scaling_factor_y" : 2
    },
    {
      "pad_r" : 0,
      "fused_relu" : 1,
      "fused_tanh" : 0,
      "debug_info" : "Unet_TF\/conv2d_13\/BiasAdd",
      "pad_fill_mode" : 0,
      "pad_b" : 0,
      "pad_l" : 0,
      "top" : "Unet_TF\/activation_20\/Relu",
      "K" : 32,
      "blob_biases" : 195,
      "name" : "Unet_TF\/conv2d_13\/BiasAdd",
      "has_batch_norm" : 0,
      "type" : "convolution",
      "n_groups" : 1,
      "pad_t" : 0,
      "has_biases" : 1,
      "C" : 16,
      "bottom" : "Unet_TF\/up_sampling2d_4\/resize\/ResizeBilinear_channel_first_upsample_bilinear",
      "weights" : {
        "W_U8" : 197,
        "per_ch_qscale" : 201,
        "per_ch_qbias" : 199
      },
      "Nx" : 2,
      "pad_mode" : 1,
      "pad_value" : 0,
      "Ny" : 2,
      "n_parallel" : 1
    },
    {
      "weights" : {

      },
      "debug_info" : "Unet_TF\/concatenate_4\/concat",
      "top" : "Unet_TF\/concatenate_4\/concat",
      "type" : "concat",
      "name" : "Unet_TF\/concatenate_4\/concat",
      "bottom" : "Unet_TF\/activation_2\/Relu,Unet_TF\/activation_20\/Relu"
    },
    {
      "pad_r" : 0,
      "fused_relu" : 1,
      "fused_tanh" : 0,
      "debug_info" : "Unet_TF\/conv2d_14\/BiasAdd",
      "pad_fill_mode" : 0,
      "pad_b" : 0,
      "pad_l" : 0,
      "top" : "Unet_TF\/activation_21\/Relu",
      "K" : 32,
      "blob_biases" : 203,
      "name" : "Unet_TF\/conv2d_14\/BiasAdd",
      "has_batch_norm" : 0,
      "type" : "convolution",
      "n_groups" : 1,
      "pad_t" : 0,
      "has_biases" : 1,
      "C" : 16,
      "bottom" : "Unet_TF\/concatenate_4\/concat",
      "weights" : {
        "W_U8" : 205,
        "per_ch_qscale" : 209,
        "per_ch_qbias" : 207
      },
      "Nx" : 3,
      "pad_mode" : 1,
      "pad_value" : 0,
      "Ny" : 3,
      "n_parallel" : 1
    },
    {
      "pad_r" : 0,
      "fused_relu" : 1,
      "fused_tanh" : 0,
      "debug_info" : "Unet_TF\/conv2d_15\/BiasAdd",
      "pad_fill_mode" : 0,
      "pad_b" : 0,
      "pad_l" : 0,
      "top" : "Unet_TF\/activation_22\/Relu",
      "K" : 16,
      "blob_biases" : 211,
      "name" : "Unet_TF\/conv2d_15\/BiasAdd",
      "has_batch_norm" : 0,
      "type" : "convolution",
      "n_groups" : 1,
      "pad_t" : 0,
      "has_biases" : 1,
      "C" : 16,
      "bottom" : "Unet_TF\/activation_21\/Relu",
      "weights" : {
        "W_U8" : 213,
        "per_ch_qscale" : 217,
        "per_ch_qbias" : 215
      },
      "Nx" : 3,
      "pad_mode" : 1,
      "pad_value" : 0,
      "Ny" : 3,
      "n_parallel" : 1
    },
    {
      "pad_r" : 0,
      "fused_relu" : 1,
      "fused_tanh" : 0,
      "debug_info" : "Unet_TF\/conv2d_16\/BiasAdd",
      "pad_fill_mode" : 0,
      "pad_b" : 0,
      "pad_l" : 0,
      "top" : "Unet_TF\/activation_23\/Relu",
      "K" : 16,
      "blob_biases" : 219,
      "name" : "Unet_TF\/conv2d_16\/BiasAdd",
      "has_batch_norm" : 0,
      "type" : "convolution",
      "n_groups" : 1,
      "pad_t" : 0,
      "has_biases" : 1,
      "C" : 2,
      "bottom" : "Unet_TF\/activation_22\/Relu",
      "weights" : {
        "W_U8" : 221,
        "per_ch_qscale" : 225,
        "per_ch_qbias" : 223
      },
      "Nx" : 3,
      "pad_mode" : 1,
      "pad_value" : 0,
      "Ny" : 3,
      "n_parallel" : 1
    },
    {
      "pad_r" : 0,
      "fused_relu" : 0,
      "fused_tanh" : 0,
      "debug_info" : "Unet_TF\/conv2d_17\/Conv2Dx",
      "pad_fill_mode" : 0,
      "pad_b" : 0,
      "pad_l" : 0,
      "top" : "Unet_TF\/conv2d_17\/Conv2Dx",
      "K" : 2,
      "name" : "Unet_TF\/conv2d_17\/Conv2Dx",
      "has_batch_norm" : 0,
      "type" : "convolution",
      "n_groups" : 1,
      "pad_t" : 0,
      "has_biases" : 0,
      "C" : 1,
      "bottom" : "Unet_TF\/activation_23\/Relu",
      "weights" : {
        "W_U8" : 227,
        "per_ch_qscale" : 231,
        "per_ch_qbias" : 229
      },
      "Nx" : 1,
      "pad_mode" : 0,
      "pad_value" : 0,
      "Ny" : 1,
      "n_parallel" : 1
    },
    {
      "axis_h" : 1,
      "axis_w" : 0,
      "bottom" : "Unet_TF\/conv2d_17\/Conv2Dx",
      "axis_k" : 2,
      "axis_n" : 3,
      "axis_seq" : 4,
      "weights" : {

      },
      "debug_info" : "Unet_TF\/conv2d_17\/Conv2D",
      "top" : "Unet_TF\/conv2d_17\/Conv2D",
      "type" : "transpose",
      "name" : "Unet_TF\/conv2d_17\/Conv2D"
    },
    {
      "top" : "Unet_TF\/conv2d_17\/BiasAdd\/ReadVariableOp",
      "w" : 1,
      "h" : 1,
      "name" : "Unet_TF\/conv2d_17\/BiasAdd\/ReadVariableOp",
      "nd_rank" : 1,
      "type" : "load_constant",
      "k" : 1,
      "bottom" : "",
      "debug_info" : "Unet_TF\/conv2d_17\/BiasAdd\/ReadVariableOp",
      "n" : 1,
      "weights" : {

      },
      "constant_blob" : 233
    },
    {
      "bottom" : "Unet_TF\/conv2d_17\/Conv2D,Unet_TF\/conv2d_17\/BiasAdd\/ReadVariableOp",
      "alpha" : 1,
      "operation" : 0,
      "weights" : {

      },
      "fused_relu" : 0,
      "debug_info" : "Unet_TF\/conv2d_17\/BiasAdd",
      "top" : "Unet_TF\/conv2d_17\/BiasAdd",
      "type" : "elementwise",
      "name" : "Unet_TF\/conv2d_17\/BiasAdd",
      "beta" : 0
    },
    {
      "bottom" : "Unet_TF\/conv2d_17\/BiasAdd",
      "weights" : {

      },
      "mode" : 3,
      "debug_info" : "Unet_TF\/conv2d_17\/Sigmoid",
      "top" : "Identity",
      "type" : "activation",
      "name" : "Unet_TF\/conv2d_17\/Sigmoid"
    },
    {
      "bottom" : "Identity",
      "alpha" : 255,
      "beta" : 0,
      "mode" : 6,
      "weights" : {

      },
      "debug_info" : "convert_to_image",
      "top" : "image_output",
      "type" : "activation",
      "name" : "convert_to_image",
      "attributes" : {
        "is_output" : 1
      }
    }
  ],
  "transform_params" : {
    "image" : {
      "bias_a" : 0,
      "bias_g" : -1,
      "bias_r" : -1,
      "bias_b" : -1,
      "center_mean" : 0,
      "is_network_bgr" : 0,
      "scale" : 0.0078431377187371254
    }
  },
  "storage" : "model.espresso.weights",
  "metadata_in_weights" : [

  ],
  "properties" : {

  },
  "analyses" : {

  },
  "format_version" : 200
}